checkpoints/best.pt (torch, 293361 bytes, 6 tensors)

bias f4 [65]
000000 c9 34 93 3e d9 7f 02 3d 50 54 62 be a7 21 13 bf
       0.2875121 0.031860206 -0.22102475 -0.57473224
000010 ee c8 ae be 97 ad fc 3d c6 1f 23 be 99 a7 ed be
       -0.34137672 0.12337797 -0.1593009 -0.4641693
000020 78 23 03 bf ee c7 88 be c7 a9 eb 3e 07 7c e9 be
       -0.51225996 -0.26715034 0.46027967 -0.45602438
000030 6b 1c ee be 0d 18 b3 3e 42 42 88 3d 9a fc 18 bc
       -0.46506056 0.34979287 0.06653263 -0.009337569
000040 64 8c 32 be 06 85 0f 3e 85 ce df bd 0c d8 29 be
       -0.17436367 0.14015588 -0.10928062 -0.16586322
000050 99 79 23 3e 56 d7 ba 3d 24 93 a1 be 18 74 3a be
       0.15964355 0.09123103 -0.31557572 -0.18208349
000060 75 36 92 3c 53 0f 12 be 95 b3 6f bd 47 12 5f be
       0.017848233 -0.14263658 -0.058520872 -0.21784316
000070 14 54 9f be 04 c5 89 be 33 00 c2 3e 04 52 72 bd
       -0.31118834 -0.26908123 0.37890777 -0.059160247
000080 7a 7a 42 3d 85 2a f3 be 15 a4 cd be ef 08 05 3e
       0.047480084 -0.47493377 -0.40164247 0.12991689
000090 6d 71 24 bf c3 af b9 bc 61 67 1a bf 06 e3 9f 3e
       -0.64235574 -0.022666818 -0.60313994 0.31227893
0000a0 96 b1 1c 3d ae e9 39 3d a6 91 57 3e dc ea 76 3d
       0.038255297 0.04538887 0.21051654 0.060282573
0000b0 81 a3 d1 bd 66 5a 98 be 16 b4 ad bd 16 a4 0d 3f
       -0.10236264 -0.2975647 -0.08481614 0.553285
0000c0 a8 c9 df be 54 c1 92 be 00 67 8e 3e 97 89 57 be
       -0.4370854 -0.28663123 0.27812958 -0.2104858
0000d0 cb 78 10 3e f1 3b 77 3e bd 49 2b be 63 2d 07 bf
       0.14108579 0.2414396 -0.16727348 -0.5280363
0000e0 d0 06 18 bd 92 5e 9d 3e 2a 34 7f be b2 dc 80 bd
       -0.037115872 0.30736214 -0.24922243 -0.06292094
0000f0 5d eb 00 bf 46 51 1b 3d 31 e6 1d bf bc d9 cb be
       -0.50359136 0.037919305 -0.6167937 -0.39814556
000100 a8 dd 01 bf
       -0.50728846

embedding.weight f4 [65, 32]
000000 25 6c b8 3d a9 59 3f 3d be 32 cc bd 47 00 ef 3e
       0.09005002 0.046716366 -0.09970616 0.466799
000010 9e 4a f0 ba 51 be 1b bf 5c 75 6a 3b ce 3b 9e bf
       -0.0018332785 -0.60837275 0.0035775518 -1.2362001
000020 65 75 aa bf c5 93 bf 3d e2 f1 4c bd e2 76 33 be
       -1.3317076 0.09354357 -0.050035365 -0.17525819
000030 24 73 52 3f 2c 1f 3d 3e 3e c8 78 be 47 00 ae 3e
       0.8220694 0.18468922 -0.24295136 0.33984587
000040 92 77 e4 be ac c1 df bf d5 56 77 be 68 20 6c bf
       -0.44622475 -1.7480979 -0.24154218 -0.9223695
000050 16 94 4e bf ee 42 97 bf 10 6e 6e 3d 3c 24 03 3f
       -0.8069471 -1.18173 0.058210433 0.51227164
000060 37 3c 12 bf 69 b9 94 be 4b d8 ec bf eb 0a b4 bd
       -0.5712313 -0.29047707 -1.8503507 -0.08791145
000070 46 18 2a 3f 93 af 33 be 7c 66 80 3f 58 97 e5 3e
       0.6644329 -0.17547445 1.0031276 0.4484203
000080 27 ea 00 3e a6 1a 14 be d9 77 3b be 9a c3 09 3f
       0.12589322 -0.1446329 -0.18307437 0.5381409
000090 96 5f 2c 3e c7 c4 d1 bd 4b 9a e2 be 16 92 f0 bf
       0.16833338 -0.102426104 -0.4425834 -1.8794582
0000a0 d3 5b 14 bf 55 b6 03 be a6 b9 00 3d d9 22 93 bd
       -0.5795261 -0.12862523 0.03142705 -0.07184381
0000b0 84 2b b1 3a bb 0e 2c 3e d8 b0 07 3e fa a8 98 bd
       0.0013516997 0.16802494 0.13251054 -0.07454105
0000c0 25 f7 6e be ad 65 9e bf c2 a5 10 3f 83 35 8a be
       -0.23336466 -1.2374779 0.56502926 -0.2699395
0000d0 8b b7 90 3e 8a 8b b9 3e b6 50 24 3e 51 d4 ed bc
       0.28265032 0.36239272 0.16046414 -0.029031904
0000e0 ed a6 35 3d 72 db da 3e c8 e9 d2 3d b1 ef 7d 3e
       0.044348646 0.42745548 0.102984965 0.24798466
0000f0 aa 5e 46 3f c7 7a 55 be 28 cf 83 3f 8a 8d 6e bf
       0.77488196 -0.20847617 1.0297594 -0.9318472
000100 f9 99 4a bf d0 c0 1d bf 68 ec d5 3e e8 7a 3e 3e
       -0.79141194 -0.61622334 0.41781926 0.18601573
000110 5a 2c 36 bf ce 8c c1 3e 6a 69 f8 3e 89 32 42 3d
       -0.71161425 0.37802738 0.48517925 0.047411475
000120 cc 5f 37 3f 44 12 6c 3e 6d ce 35 3e 2b 64 5e bf
       0.7163055 0.23053843 0.17754526 -0.86871594
000130 05 07 a2 bd 1f 0c 7f 3f 2f 0e d1 be 62 6a 32 3f
       -0.07911495 0.9962787 -0.40831134 0.6969358
000140 6c 95 75 bf 42 35 24 3e 9e f5 be 3d 47 57 55 3f
       -0.95931125 0.16035941 0.093241915 0.833363
000150 e8 f9 67 be 4b f2 95 bf 70 bc c7 bd bf 90 b9 bd
       -0.22653925 -1.1714567 -0.097527385 -0.09060811
000160 5d 60 2f 3f 64 6d 67 be ad e4 a5 bd 32 d8 77 be
       0.68506414 -0.22600323 -0.08100257 -0.24203566
000170 71 6d 9e 3f 94 eb 8a 3f 8b e3 75 bf 31 d4 78 3f
       1.2377149 1.0853143 -0.9605033 0.9719878
000180 ec bc 0d c0 64 91 ba 3e 17 e1 83 3f 7e 19 ba bf
       -2.2146559 0.3643905 1.0303067 -1.453903
000190 b4 e1 cb bc 54 31 cc bf 0e 77 06 40 65 1d 3c bf
       -0.024887897 -1.5952554 2.1010165 -0.7348235
0001a0 06 5c ac 3f 84 98 9f 3f 93 5e e1 bf 03 f7 d2 3e
       1.3465583 1.2468419 -1.7606987 0.4120408
0001b0 cf 0e e1 be a6 4a c1 be 5f 5f 6d 3f e4 f4 fe bf
       -0.4395661 -0.37752265 0.9272365 -1.9918485
0001c0 4f 0f 1b bf 7e 1c 68 3f 57 21 bf 3f 3b 84 af bf
       -0.60570234 0.90668476 1.493205 -1.3712229
0001d0 bf 00 77 be 44 f6 38 3f 33 24 02 bf b9 94 de 3e
       -0.24121378 0.7225077 -0.50836486 0.4347284
0001e0 5a 51 9d bf a4 29 1b bf 58 eb eb bd 88 e5 07 3f
       -1.2290452 -0.60610414 -0.11519498 0.5308461
0001f0 44 77 d2 3e 36 20 de bb de 03 53 3e 61 3a 85 be
       0.41106617 -0.006778742 0.20606944 -0.26021102
000200 7d e6 96 3f 2d 94 ff bf b5 be d1 be fb 27 b8 3f
       1.178909 -1.9967095 -0.4096581 1.4387201
000210 fe a4 99 3e 93 41 83 bf 37 fc 5b 3f 31 b2 c7 3f
       0.30008692 -1.0254387 0.85931724 1.5601255
000220 b5 67 28 bf cc d3 49 bf 5d 68 7b bf a0 56 22 bf
       -0.65783244 -0.788388 -0.9820612 -0.6341343
000230 d7 e0 e5 be 14 5e 56 bf 8b 5f b9 3e 39 14 01 be
       -0.44898102 -0.837373 0.36205706 -0.1260537
000240 68 c5 e4 be 0f 49 99 3f 5f 51 f3 be be ea 0b 3f
       -0.4468186 1.1975421 -0.4752302 0.54655063
000250 9c 4a 8b bf c2 85 5d 3f 29 d6 03 be 96 b5 d2 bf
       -1.0882144 0.86532223 -0.12874664 -1.6461666
000260 7e 0c ac 3f f4 ed 98 bf d4 05 b7 bf be 85 fc bf
       1.3441312 -1.1947618 -1.4298654 -1.9728315
000270 07 fd 2e bf 22 1e 17 40 a3 1e 3b 3e 0d 59 2d 3f
       -0.6835484 2.3612142 0.18273406 0.67714006
000280 f0 64 4d 3e fc 24 bd bf ce 61 1b 3f 1e 17 f2 bd
       0.20058036 -1.4776912 0.60696113 -0.118208155
000290 fd 54 06 3e 3f d6 4c bf e0 5e b3 bd 9b da 92 3f
       0.13118358 -0.80014414 -0.0875833 1.1472963
0002a0 28 b7 50 3f 82 6e b1 bf ef b7 1e be 97 63 6d 3f
       0.81529474 -1.3861849 -0.15499853 0.9273009
0002b0 66 52 45 3f 7c fd f3 be b2 ff bc be eb 1f 98 3f
       0.77078855 -0.4765433 -0.3691383 1.188474
0002c0 49 f2 f7 bd 52 77 cf bd 1e e4 82 3f 23 a3 3a 3f
       -0.12106759 -0.101301804 1.0225866 0.72905177
0002d0 04 ac 80 bd 0c af 92 3f b5 9a 16 bf 6d 4e aa 3e
       -0.062828094 1.145967 -0.58829814 0.3326296
0002e0 82 cc ba 3f a8 8a 9d 3f 58 b5 e4 bf 16 3b 08 3e
       1.4593661 1.230794 -1.7867842 0.1330379
0002f0 18 9f 45 3f 0e fe cc 3f 11 0f 8b 3e 02 80 e4 3d
       0.7719588 1.6015031 0.27159932 0.11157228
000300 db d2 03 3b 44 92 4a 3f d3 50 b1 3e a4 d2 51 be
       0.0020114693 0.79129434 0.34631976 -0.2049051
000310 f7 e5 08 bf 2a 7f 07 3f 93 19 8c 3e 88 ef 07 3f
       -0.534759 0.5292841 0.27363262 0.5309987
000320 37 28 ca bd fd 9a aa bd 2c 73 0b be 25 ed a9 3e
       -0.098709516 -0.08330343 -0.13618153 0.3318874
000330 89 40 53 be 08 46 5a 3e 27 4e 82 bb 82 c1 7d be
       -0.20630087 0.21315777 -0.0039766016 -0.24780849
000340 3d 2b 63 bf 99 12 2d bf e0 65 e2 be 9a 39 70 3f
       -0.8873785 -0.676065 -0.4421835 0.93837893
000350 fa 92 3a 3e cf c2 51 be 8e b5 ae be e8 05 ca bc
       0.1822013 -0.2048447 -0.3412289 -0.02466102
000360 49 37 f7 3e 4a 8e 92 be 3a 52 05 bf 56 56 dc be
       0.48284367 -0.28624183 -0.5207859 -0.4303462
000370 11 6e a2 3f 96 f9 81 bd f5 99 c2 bd 32 ea 93 3f
       1.268984 -0.06346433 -0.09502021 1.1555846
000380 90 91 81 bf 43 0b ac bf 71 e1 82 bf 4a 24 3c be
       -1.0122547 -1.3440937 -1.0225049 -0.18373218
000390 7e 5f 84 bf 61 8f d0 3e 0a 14 91 bf 85 a2 88 be
       -1.0341642 0.4073439 -1.133424 -0.26686493
0003a0 9b 62 2d bf 77 cf 9d 3e 1f 95 95 3f ae 9e a9 be
       -0.67728585 0.30822346 1.1686133 -0.33128875
0003b0 00 d3 78 be d0 7f 62 3f 5e 5d 99 3e 73 e7 c2 be
       -0.2429924 0.88476276 0.29954046 -0.38067207
0003c0 51 72 3e bf 00 12 f5 3e 94 81 15 3e e6 a1 0d bf
       -0.74393183 0.47865295 0.14600211 -0.5532516
0003d0 1d fc 81 3e c9 be 52 bf d0 4a ae bf 5f 60 99 3f
       0.2538766 -0.82322365 -1.3616581 1.1982535
0003e0 31 62 09 3f 1f b1 5f 3e 15 ce 0e be ab 2d b4 3f
       0.53665453 0.2184491 -0.13945802 1.4076437
0003f0 bc 3d b7 3f b7 12 50 3e df f0 13 3f a1 b2 ee bf
       1.4315715 0.20319639 0.57789415 -1.8648263

hidden_linear.weight f4 [128, 320]
000000 41 14 87 bd c1 eb 73 bd b4 e3 39 3d f0 bb 02 bc
       -0.0659566 -0.059551004 0.04538317 -0.007979378
000010 ca 8f 3b 3d e0 e3 23 bd 14 dc 31 3c ff 46 ab 3d
       0.045791425 -0.04001224 0.010855693 0.08363151
000020 24 75 1f 3c c6 fc 9c bd e3 55 84 bd 23 2c 33 bd
       0.009732518 -0.076654 -0.06461694 -0.043743264
000030 49 da 32 3d d8 32 6b bc 03 a7 15 be 69 f7 91 3d
       0.043665204 -0.014355384 -0.14614491 0.07127268
000040 aa cc c0 bc fb 10 a5 bd 1e a2 c8 3d 44 c1 49 3d
       -0.023535091 -0.080598794 0.097965464 0.049256578
000050 d5 94 7f 3d d0 09 81 3d 96 ac 61 3a ab e3 4c bc
       0.062397797 0.063007 0.0008608786 -0.012505452
000060 16 0c 54 3c 65 47 b5 bd 5e 99 cd 3c b9 45 db bc
       0.012942335 -0.08851508 0.025097545 -0.026766645
000070 cb cf f7 bc 8a c0 0b bd 69 ca 14 bc 35 eb b4 3c
       -0.03025045 -0.034119166 -0.0090814615 0.022084812
000080 1b 1e 77 bd b3 05 82 3d 37 89 a1 bc 7f b8 e7 3b
       -0.060331445 0.06348743 -0.01971875 0.007071554
000090 c6 33 e2 3c a0 c2 34 3d ea 6b c8 bd 84 ac 78 3c
       0.027612578 0.04413092 -0.09786208 0.01517785
0000a0 12 29 93 bd 83 bc 0b 3d 49 3d 50 bd f9 cf 3f 3e
       -0.07185568 0.034115326 -0.050839696 0.18731679
0000b0 ae fd 95 3c 70 19 71 bd 09 0b 81 bd 37 53 4f bd
       0.01830944 -0.05886215 -0.06300933 -0.05061647
0000c0 0d 2a 59 bd a9 1b 96 bd dd 8e c7 3d b6 da 8e bc
       -0.05301862 -0.073294945 0.09744046 -0.017438274
0000d0 db 00 b8 bd fe 58 a6 bc 5c 25 60 3d 8d ff b5 3d
       -0.08984538 -0.020306107 0.05472313 0.08886633
0000e0 64 c4 a2 bd a1 ef af 3c e3 e2 19 bd 69 11 8c bb
       -0.07947615 0.021476569 -0.03756989 -0.0042745364
0000f0 a6 49 a6 3c ed 2a 13 3d b2 25 58 3c 60 64 a0 ba
       0.02029879 0.03592961 0.013192581 -0.0012236945
000100 f0 db 3d bd b3 2d 2e 3e f5 35 3f bd 8b 96 bb bc
       -0.046352327 0.1700962 -0.046682317 -0.022898933
000110 41 63 ae 3d b2 27 93 3d de df c7 bc a8 33 f9 3c
       0.08515025 0.07185306 -0.02439874 0.03042014
000120 cf 92 92 3d 7d 5b 9c bc 74 bd 2c bd 6d 30 36 3d
       0.07156908 -0.019086594 -0.042172864 0.044479776
000130 08 b8 18 bd 07 52 43 3d 86 95 cf bc 47 2d 8b bc
       -0.03728488 0.04768565 -0.025339853 -0.016989363
000140 dc e1 ea bd 8c 19 06 3d 43 1a 58 3d e0 87 ee 3c
       -0.114688605 0.032739207 0.05275942 0.029117525
000150 00 76 e5 bb 85 1d d1 bc 89 d9 49 3d 08 11 41 3d
       -0.007002592 -0.025526771 0.049279723 0.047135383
000160 7d 48 cd bd bb 20 92 3d 5a 4e 40 bd 9a 86 db bd
       -0.10023592 0.07135149 -0.046949722 -0.107190326
000170 46 7f c9 3d 0a ab 71 3d 68 ca 38 3b a4 97 cc 3a
       0.098387286 0.059001006 0.0028196815 0.0015609157
000180 cf 30 06 be 1d 1e 99 3d 08 57 08 be d2 48 97 bd
       -0.13104557 0.07476447 -0.1331445 -0.07386936
000190 84 f6 1e 3d 21 90 ab 3d 26 d8 cf 3c d7 62 a1 3c
       0.038809314 0.083771 0.025371622 0.01970045
0001a0 78 7b cd 3d fa d1 bc bd 11 1e b4 bd b3 03 5f 3e
       0.100333154 -0.09219737 -0.08794797 0.21778755
0001b0 65 b9 d6 3b a6 38 a1 bd 22 20 03 3e 2a 9b 3f be
       0.0065528625 -0.07872133 0.12805226 -0.18711534
0001c0 b2 54 52 3c 15 45 0b 3d da 4c af bc c2 9c e9 bd
       0.012837576 0.03400143 -0.02139895 -0.11406852
0001d0 17 6b 26 3d 8b 8d 7b bd 55 52 0d bd cc 7c b9 3d
       0.040629473 -0.061414283 -0.034502346 0.09057006
0001e0 47 71 8c 3d 32 95 69 3c b0 e1 1a bd 4d 90 69 3d
       0.068575434 0.014256762 -0.03781289 0.05702238
0001f0 0b d7 76 bd e6 64 83 b8 43 dc ee bd 07 c3 7c 3d
       -0.060263675 -6.2653606e-05 -0.11663105 0.06170943
000200 9d 2f c4 3d ee 48 b4 bd 17 77 bb bd fe c6 4c be
       0.09579394 -0.08802973 -0.09153574 -0.19997784
000210 9f e8 71 be 36 46 c7 3a ac df d9 bd 21 cb e6 3d
       -0.23623894 0.001520342 -0.10638365 0.112692125
000220 78 c2 c2 3d db a4 4e 3c aa 8a be bd 37 90 a3 bb
       0.09509748 0.012612547 -0.09303792 -0.004991557
000230 b1 9e 10 3d ca 42 23 be 55 61 e3 bd 23 de 93 bd
       0.03530759 -0.15943447 -0.11102549 -0.072201036
000240 1e 54 06 3e ad ae 75 3e 70 1f 0c be 76 df 88 be
       0.13118026 0.23992415 -0.13683867 -0.26732987
000250 66 5a 14 3e 83 7f 89 3c 5d a9 82 bb ab a2 8f 3d
       0.1448761 0.016784435 -0.003987475 0.07013448
000260 71 7c d5 3d da 12 26 be 27 71 8f bb ed 15 ed 3d
       0.10424126 -0.16218129 -0.0043775025 0.11576448
000270 68 0c 12 be 9a 4c 5c bb 83 dc 7b be 05 10 f9 3d
       -0.14262545 -0.0033614994 -0.24595837 0.121612586
000280 a5 bf 2f be 82 09 8f 3e 37 91 0f be 4e 14 00 bf
       -0.1716295 0.2793694 -0.14020239 -0.5003098
000290 d7 fc 25 3e db fe 0c 3e 70 3c 98 3e aa e3 ca 3e
       0.16209732 0.13769095 0.2973361 0.3962682
0002a0 8f 80 09 3e c8 4f aa 3e a9 f4 8e be e0 78 15 3f
       0.13427947 0.33263993 -0.27921036 0.58387566
0002b0 56 c5 b0 3d 68 e2 2e bd 6a e2 c1 bd 4c 3b ea bc
       0.08631389 -0.042696387 -0.09467013 -0.028592728
0002c0 c8 22 b6 be 17 a2 88 3e 65 ff bf bb 64 ae 64 3e
       -0.3557341 0.26686165 -0.005859303 0.2233215
0002d0 53 df 5e be d4 54 de 3c ac 16 1a be db 16 3c be
       -0.21764879 0.027140059 -0.15047711 -0.18368094
0002e0 c4 73 9e 3e 79 0a 95 be 4f 8e b5 3e c6 1e 3b bd
       0.30947697 -0.29109553 0.35460135 -0.045683645
0002f0 48 9c 5e be e1 b9 88 bd 7e 79 13 bf 94 4d 88 3e
       -0.21739304 -0.066760786 -0.5760726 0.26621687
000300 a9 b2 b9 be bf 82 6c 3f 95 fd 9c 3d 88 dc 1e be
       -0.3626912 0.92387 0.076655544 -0.15513813
000310 80 dc 12 bd 19 3a 03 be f2 11 67 3e cd 49 90 3e
       -0.035854816 -0.12815131 0.2256544 0.28181306
000320 5d 1e 0b 3f 56 4f 96 3e 67 aa 21 bf be 05 1a 3f
       0.54343206 0.29357404 -0.6315064 0.6016501
000330 3f 85 04 3f 1b 54 83 be 5c 55 23 be 1d 70 01 3e
       0.5176582 -0.25650105 -0.15950531 0.12640424
000340 84 dc 30 be c0 f0 9f 3e 97 33 b7 3a 04 a7 b1 3d
       -0.1727162 0.31238365 0.0013977167 0.08674434
000350 6f cf b0 bd 3a 81 0a 3e 51 d9 c6 3e 81 81 35 3f
       -0.08633315 0.13525859 0.38837674 0.7090073
000360 b4 68 44 3e 4f 2d 91 be 9c 87 2a 3f cc ea b6 be
       0.19180566 -0.2835488 0.66613173 -0.3572601
000370 d5 b5 8c be 3c 69 5b 3f 82 7f ce be 25 62 e7 3e
       -0.27482477 0.8570745 -0.40331656 0.45192066
000380 1c c1 47 bf 3b 7e 51 3e 9e b2 89 bf 10 08 c2 3d
       -0.78029037 0.2045831 -1.0757635 0.09474194
000390 9b b9 06 bf e9 4e a6 be c3 c5 25 3e c5 94 65 be
       -0.5262696 -0.3248208 0.16188721 -0.22420032
0003a0 ca 51 9a 3d 64 de a1 3d d2 74 1e bf 0a 41 59 3f
       0.07535131 0.07903746 -0.61897004 0.84864867
0003b0 a4 4e 98 bf ce df 37 be 6f e1 69 bf 37 23 3d 3d
       -1.1898999 -0.17956468 -0.9135961 0.04617616
0003c0 0b 39 94 be 99 15 89 3e 9a 3f bd 3e ce 74 cb 3d
       -0.2894977 0.2677429 0.36962587 0.09934388
0003d0 a5 b8 f0 bd e6 fc 53 3e 79 02 30 bd 3e a3 9c 3d
       -0.11753968 0.20701942 -0.042971108 0.076483235
0003e0 72 ab 00 3f 42 0b 55 3f 84 c5 0f bf 6d 51 35 3e
       0.50261605 0.83220303 -0.5616076 0.17706843
0003f0 ef d8 06 3f 29 2f ae be 28 44 9f be 53 12 78 be
       0.52674764 -0.34020355 -0.31106687 -0.2422574

hidden_linear.bias f4 [128]
000000 63 65 93 3e aa 0a 67 3e f5 14 14 3f 5c 09 a8 be
       0.2878829 0.22562662 0.5784448 -0.3281964
000010 e5 44 ed 3e 65 98 0d 3e 04 62 08 3e b7 18 cb be
       0.46341625 0.13827665 0.1331864 -0.39667293
000020 a8 7c ac bd c4 51 04 bf cf 07 9c be 69 4c 2d be
       -0.08422214 -0.51687264 -0.30474707 -0.1692368
000030 f7 8a 03 3e 52 d1 ba bf 15 23 03 3f ac 28 7f 3f
       0.1284598 -1.459513 0.51225406 0.99671435
000040 3f 2a 0b 3e 40 83 27 3f e2 15 ce 3e 9e c6 ba bd
       0.13590334 0.65434647 0.4025107 -0.091199145
000050 a6 7c db be 22 35 4f 3e ef 01 cc 3e e2 a2 92 be
       -0.42868537 0.20235112 0.39845225 -0.28639895
000060 75 6b 4e be 2a bd 88 be 5d 10 1f bf 4f 94 b3 3e
       -0.20158179 -0.2670682 -0.62134343 0.35074088
000070 c0 77 3b 3f d0 87 02 3f ff a8 89 be f6 32 40 3d
       0.732296 0.50988483 -0.26886746 0.0469236
000080 16 cf bd be 7b bb 31 bd 41 37 34 3d 6b ca 06 3f
       -0.37072057 -0.043391686 0.043998007 0.52652615
000090 87 1a 01 3f fe 90 1f bf f9 41 09 3f 4f 55 5a bf
       0.504311 -0.62330616 0.5361629 -0.8528642
0000a0 69 c0 3b 3f 5f c4 c1 be 5a c4 a0 3e d1 de ff be
       0.7334047 -0.37845132 0.31399804 -0.49974683
0000b0 66 12 88 bf 5d 17 93 be b6 fb 5a be 25 a7 58 3f
       -1.0630615 -0.28728762 -0.21385083 0.8463004
0000c0 a9 97 9f be 62 3e e7 3e 6b 98 f5 3e 3e 9e f5 3e
       -0.31170395 0.45164782 0.47967848 0.47972292
0000d0 1e 2d 62 be 24 bc 75 bf 19 39 f3 be 24 6e 35 3c
       -0.22087523 -0.95990205 -0.475045 0.011073623
0000e0 04 e4 50 3f d7 48 84 bf 57 b5 5f bf 1f dd 16 3e
       0.81597924 -1.0334729 -0.8738608 0.14732789
0000f0 05 62 e1 3d 7f 71 9f 3e 26 7e 83 bf 33 44 ac 3e
       0.11005024 0.31141278 -1.0272872 0.33645782
000100 8c fd 97 3e 39 86 c1 bd d4 9b 5f 3f 3f d8 40 3d
       0.29685628 -0.09449429 0.8734715 0.04708123
000110 02 58 f2 3e a2 70 c3 be 7d 04 24 bf 81 18 03 3e
       0.4733277 -0.3817187 -0.6406935 0.12802316
000120 70 d3 cd 3e f5 bc f5 be de 33 d7 be 72 54 b8 be
       0.40200377 -0.47995725 -0.4203176 -0.36001927
000130 9b 1f bb 3e 7c f3 24 3f 67 08 53 bc e7 fb eb 3e
       0.3654755 0.6443403 -0.012880421 0.46090624
000140 0c d3 2e 3d 57 f4 4d bf 65 b0 06 bd 95 fb 52 bf
       0.04268174 -0.8045096 -0.032883067 -0.82415134
000150 b5 2b f2 bc 27 b4 58 be e2 10 ba 3e 0a 22 90 bf
       -0.029561857 -0.21162473 0.36341006 -1.1260388
000160 d6 6c 6a be b2 bc d6 be e1 1a 19 bf 5d 78 c5 3e
       -0.2289308 -0.41940838 -0.5980664 0.38568392
000170 46 70 c8 be 67 c1 43 3e 3e 33 85 3f 03 32 ed 3e
       -0.39148158 0.19116746 1.0406263 0.46327218
000180 d3 a1 1b bf 48 ce ac 3e a0 75 83 bf 6e 52 b5 3e
       -0.607938 0.3375113 -1.0270271 0.3541445
000190 57 3f 55 3e 2a 5a 47 3e 6e cf f0 3d 69 3a 6a bf
       0.20824943 0.19467989 0.11758314 -0.91495377
0001a0 f5 61 14 3f f2 dc 33 3f 6a 12 56 3f 38 b1 cd 3e
       0.5796197 0.7025901 0.8362185 0.4017427
0001b0 e7 3b 71 3e 58 af ff 3d 99 6a 20 3f 50 56 62 be
       0.23558007 0.12484616 0.62662655 -0.22103238
0001c0 c6 cc 0b 3e e3 eb 02 3f b2 60 4a bf d4 28 86 3b
       0.13652334 0.51141185 -0.79053795 0.0040942226
0001d0 53 48 3d 3d f9 0c 21 bf c8 e6 24 bf 2d 3d 4a bf
       0.046211552 -0.6291042 -0.64414644 -0.78999597
0001e0 17 74 d3 be 38 9c 71 be c7 78 fe be ac a1 1c bf
       -0.41299507 -0.23594749 -0.4970152 -0.6118419
0001f0 a1 72 0b 3e 54 0a da 3e 2d b9 06 bf 7f 13 af 3d
       0.13617946 0.42586005 -0.52626306 0.085486405

input_to_vocab.weight f4 [65, 320]
000000 d3 97 8e bd 9f e6 80 3d 58 df 6c bd 38 8f 0b bd
       -0.06962552 0.062939875 -0.057830185 -0.03407213
000010 0b c3 11 3d fa a3 01 3e 54 0f 14 bb 72 b2 32 bc
       0.035586398 0.12660208 -0.0022592144 -0.0109068025
000020 bd 7d ad 3d c4 92 3f bd 7b b8 b0 bd f2 e0 5f 3d
       0.08471248 -0.046770826 -0.08628937 0.054657884
000030 36 ce c0 bd c8 5a 42 bd e7 b1 b6 bd 12 a0 9e bd
       -0.094143316 -0.047449857 -0.08920651 -0.07745375
000040 e5 56 9a bc 63 98 21 bd 0c 97 a1 3d 10 33 0a 3e
       -0.018840263 -0.039451968 0.07890138 0.13496041
000050 f0 70 e1 3d 1a 51 b4 3d 3b ce 55 bd 17 b9 f6 bc
       0.11007869 0.088045314 -0.05219863 -0.030117555
000060 ab 45 86 bd 8a b5 54 3e 0a 60 34 3e 40 fe c7 3a
       -0.06556257 0.20772377 0.17614761 0.0015258268
000070 75 a4 c7 3d 96 f9 63 bb b6 1c a1 bd 28 f7 10 be
       0.097481646 -0.0034786216 -0.07866804 -0.14156783
000080 16 ec b3 bd 14 c2 fe bd f3 c3 d4 bc ed 96 f2 bd
       -0.08785264 -0.12439361 -0.025972342 -0.11845193
000090 e0 2a 26 bd 12 5a 32 bc 5f c5 09 3c 14 77 20 bc
       -0.040568233 -0.010885732 0.008408873 -0.009794015
0000a0 85 71 5a bd 90 16 60 3c 22 eb 8d bb 07 84 a9 3d
       -0.053330917 0.013677254 -0.0043310085 0.08277135
0000b0 22 12 d5 bd fd fa 80 bd ef 1b 3c bc c5 67 c6 bd
       -0.10403849 -0.06297872 -0.011481269 -0.09687761
0000c0 4f ad f0 3d ed 70 a5 3c 0c c3 ef 3c 98 bf c8 3d
       0.11751806 0.020195449 0.02926781 0.098021686
0000d0 3d a9 3f 3d 54 10 6f 3e 04 49 fd 3c 87 58 a6 bd
       0.046792258 0.23346072 0.030918606 -0.08122354
0000e0 35 02 e8 3d a3 06 10 3e ed ff 64 3e 6c 64 6d 3d
       0.11328546 0.14065032 0.22363253 0.057957098
0000f0 fa e6 95 bc 32 ab 8b bc ac 18 96 bd 67 06 90 bd
       -0.018298615 -0.017049406 -0.073289245 -0.07032471
000100 35 39 c0 bd cb 67 8e 3b 0a 99 e2 bd bc bb 8c bd
       -0.093859114 0.004345869 -0.11064346 -0.06871745
000110 77 86 b8 3c d0 0f 09 3d f9 05 98 bd ed 7a 1c 3d
       0.022525055 0.033462346 -0.07423014 0.03820317
000120 5c d9 ac 3d 22 57 81 bc 5d 07 f1 bc b5 a0 d7 3d
       0.084398955 -0.015788618 -0.029422456 0.10528699
000130 a7 63 46 be 54 78 4b bd 2e ba 8f bc 3e e0 0e be
       -0.19373952 -0.0496753 -0.017544832 -0.13952729
000140 5f 6e 15 3d 7d 47 80 bd 69 d7 39 bb e5 87 f8 3d
       0.03648221 -0.06263635 -0.0028357154 0.12135295
000150 4d 00 d4 3d 20 56 01 3e 5c 74 67 3d 44 a2 8b bd
       0.1035162 0.1263051 0.056507453 -0.06818059
000160 d6 72 07 3e f8 9f e2 3d a5 b8 3a 3e cd e7 03 bc
       0.132274 0.11065668 0.18234499 -0.008050871
000170 5a 60 c5 bc 37 f8 86 bd c3 e3 52 bd 43 7a 10 be
       -0.024093796 -0.06590312 -0.05148674 -0.14109139
000180 33 28 c7 bb 8f 3e 70 bd 8d 8f 27 be 9a 16 a0 bd
       -0.00607779 -0.05865341 -0.16363354 -0.07816811
000190 ed 6c c7 bc 5f 91 e2 bc a6 d3 08 be f1 4d a2 3d
       -0.024343932 -0.027657209 -0.13361987 0.079250224
0001a0 7d d2 55 3d 6a 18 85 bc d1 21 e3 bb 16 44 00 3e
       0.05220269 -0.016246993 -0.0069315215 0.12525973
0001b0 db 2a 06 be 3a 48 bc bd 00 88 a7 bc 53 20 fc bc
       -0.13102286 -0.091934636 -0.020450592 -0.030777132
0001c0 51 37 0f 3e d3 96 56 3c 8f e3 1b 3e f5 ba c0 3d
       0.13985945 0.013097483 0.15223525 0.09410659
0001d0 da c0 67 3e 57 3e 5e 3e 01 40 fa 3c 8e c3 81 bd
       0.22632161 0.21703468 0.030548098 -0.06336127
0001e0 f2 50 54 3d c6 9c 8c 3e 1f 26 5f 3e 80 d6 88 bd
       0.051835008 0.2746336 0.21791886 -0.06681538
0001f0 5b 23 3c bd 96 cc 0a bd d8 48 b4 bc 69 76 0d be
       -0.045932155 -0.033886515 -0.02200739 -0.13814701
000200 a5 4d 2e 3d 49 27 6d bd bc e0 28 be 58 84 32 39
       0.042554516 -0.057898793 -0.1649198 0.00017024705
000210 ec f4 d6 3d 41 25 84 bc 7f 27 03 bd f7 3e 10 3c
       0.10495934 -0.016131045 -0.03202009 0.0088040745
000220 79 8c 8d 3c 53 d7 e2 bd 68 6e 00 be 30 37 f9 3c
       0.017278897 -0.11076226 -0.12542117 0.030421823
000230 84 de 59 be 4d c7 8c bd 16 d3 f4 bd d4 7f cf bd
       -0.21276289 -0.06873951 -0.11954324 -0.10131803
000240 de 49 41 3d 03 d7 08 bd 95 88 00 3e 3f 3b 24 3d
       0.047189586 -0.033408176 0.12552102 0.040095564
000250 50 80 a9 3d 15 e4 8d 3e 26 56 8f 3d a7 c5 d5 bd
       0.08276427 0.27713075 0.069988534 -0.1043809
000260 2b 6c 8c 3d ec 7c 54 3e 32 13 30 3e c0 96 3c bd
       0.06856569 0.20750779 0.17194822 -0.046042204
000270 3c f5 95 3c ed b5 6d bc c2 4b 5c bd ce 94 fd bd
       0.018305413 -0.0145087065 -0.053783186 -0.12381898
000280 e4 12 89 3d 34 c4 cb 3c 2a c2 3d 3b 2b ec 76 bc
       0.06693056 0.02487383 0.0028954842 -0.015070955
000290 c5 4e 3b 3d 13 48 11 3c 4c ae c9 bd 67 3b 0e 3d
       0.045729417 0.0088672815 -0.098476976 0.03472462
0002a0 8a a5 68 3d 53 de f2 bc 20 8c 98 bd 8f 7e 78 bd
       0.056798495 -0.029647028 -0.07448602 -0.06066757
0002b0 ec 3c 03 be c9 1e 7f bd 93 38 f1 3c a2 2a cd bd
       -0.12816209 -0.06228522 0.029445922 -0.10017897
0002c0 d8 b0 7a 3d 1a ff 98 3b d1 63 0e 3d ab 0d a5 3d
       0.061203808 0.0046690824 0.03476316 0.080592476
0002d0 fa 17 3d 3e 9c fe 87 3e 30 63 de 3b 66 07 7b bb
       0.18466178 0.2656144 0.0067867264 -0.003830397
0002e0 31 75 60 b9 3b 09 5e 3d 41 98 42 3e 11 b8 53 3a
       -0.00021405962 0.05420802 0.19003393 0.0008076439
0002f0 f2 d3 aa ba 89 e8 f9 bc cc 63 20 bd 80 fc 24 be
       -0.0013033135 -0.03050639 -0.039157674 -0.16111946
000300 29 df 0e 3e 91 0c 9f bd e3 cd ad bd 26 56 9c 3c
       0.13952316 -0.07766069 -0.084865354 0.019084048
000310 3a a0 a2 3d b3 56 f9 3c 1c 8e 1d bd ad c4 8b bd
       0.07940717 0.03043685 -0.038465604 -0.06824622
000320 12 55 9f bd c2 67 29 bd 88 42 06 3e b2 bb f2 3d
       -0.07779898 -0.041358717 0.13111317 0.11852206
000330 26 6c 82 be 0a 0c 5f 3b 26 93 e5 3c 6a ce 4d be
       -0.25473136 0.0034034275 0.028024267 -0.20098272
000340 df 5b 09 3c 6d 28 0b 3d 50 57 96 3d 3c 47 37 3d
       0.00838372 0.0339741 0.07340872 0.04474567
000350 bb be 1f 3e 30 51 a6 3e de 56 93 3d 8b 78 86 bd
       0.15600102 0.32483816 0.07194303 -0.065659605
000360 b1 58 3a 3e 42 2b db 3d ed 01 3f 3e 5b b2 05 bb
       0.18197896 0.1070161 0.18653078 -0.0020400498
000370 ee eb df b8 41 bb 4b 3c 9b 5a 16 be 5d f6 96 be
       -0.00010677414 0.0124347815 -0.14683 -0.29484835
000380 1a 95 58 be 46 e3 82 3c 7a a3 4e 3d 3f 3a f4 3d
       -0.21150628 0.015977513 0.050448872 0.11925172
000390 cf d2 70 be 4a 4e fd bc ac c7 68 3c 79 23 bd bc
       -0.23517917 -0.03092112 0.014207762 -0.023088204
0003a0 6c 67 97 3e 61 aa aa bd b0 7f 7f 3e 76 d4 21 bd
       0.29571092 -0.083332784 0.24951053 -0.03950926
0003b0 d2 4e 8d be e3 fc a9 3d d9 16 1d 3e 5b 92 a9 bd
       -0.27599198 0.083001874 0.15340747 -0.08279868
0003c0 91 bc eb 3d dd e8 6e 3d 85 2b 4c bd e1 91 30 3e
       0.115105756 0.058327544 -0.04984619 0.17243148
0003d0 37 07 aa 3e 00 2e c3 3e b7 ef 84 3d 5a 22 88 be
       0.3320863 0.38121033 0.064910345 -0.26588708
0003e0 de 4f 90 3e 72 27 3a 3d 34 7a c0 3e 0c 7a 10 bc
       0.28185934 0.045447774 0.37593234 -0.008818161
0003f0 e8 07 96 3e 6a ac 52 3e 13 f0 93 be 48 06 8f bd
       0.29302907 0.20573583 -0.288941 -0.0698362

hidden_to_vocab.weight f4 [65, 128]
000000 a6 a4 11 3f 26 6a f3 bd 47 f0 4c be ba d1 a8 be
       0.5689186 -0.118854806 -0.20013534 -0.3297251
000010 ab e2 ad be 72 21 27 3f 46 40 a3 be 55 36 fc be
       -0.33961996 0.6528541 -0.31884974 -0.49260202
000020 71 6f 04 3f 73 e4 c4 be 6d 55 57 be b6 c6 22 bf
       0.51732546 -0.38455543 -0.21028681 -0.6358446
000030 60 7d 82 3e 10 d3 f8 3f dc 24 6c be 1f bd 15 3d
       0.2548628 1.9439411 -0.23060936 0.036557313
000040 76 c0 0d 3f 5a 8a 00 be 33 9b 7c ba 9e d1 8d 3e
       0.553718 -0.12552777 -0.00096361636 0.27698988
000050 f5 20 fa 3e fb a3 8d 3e dc 70 ad 3e 2e dc 85 3e
       0.4885327 0.2766417 0.33875167 0.26144546
000060 43 8b 28 3e 39 9e 9c 3e 7e b1 59 3e b3 ae ec 3e
       0.16459374 0.30589464 0.21259114 0.46227035
000070 05 53 79 3e 8d 13 46 3e 84 35 e6 3e 19 93 b4 3e
       0.24348076 0.19343396 0.44962704 0.35268477
000080 e6 d4 4f 3e fa 8f 96 3e c3 7e 47 3e b7 c0 c8 bd
       0.20296058 0.2940672 0.1948195 -0.098023824
000090 2f cf 22 be 3d 37 9c be 32 6e 7a 3e 7c a6 20 3e
       -0.15899347 -0.30510893 0.24456099 0.15688509
0000a0 a6 95 0e 3d dc eb 6d bc c0 70 b2 3e b7 27 de be
       0.034810685 -0.014521565 0.34851646 -0.43389675
0000b0 a1 9c 8c be eb 71 16 bf 26 36 d6 be d6 54 42 3e
       -0.27463248 -0.58767575 -0.41838187 0.18977675
0000c0 4e 0b f0 be 5f fb e2 3d 9c d9 9f be a7 aa 02 3e
       -0.46883625 0.110831015 -0.3122071 0.12760411
0000d0 72 d8 40 3e 28 44 92 bd 40 97 d3 3e f7 90 f4 3e
       0.18832567 -0.07141906 0.41326332 0.4776685
0000e0 03 97 93 bd 7a 99 98 be c1 9d 14 bf f5 26 48 3e
       -0.072065376 -0.29804593 -0.58053213 0.19546111
0000f0 c4 2a 0e be 39 14 19 be 0e 20 8d be 60 2b 1b 3f
       -0.13883501 -0.1494912 -0.27563518 0.6061306
000100 a2 32 f4 be 42 a4 ed be e4 9c 98 3e 97 86 23 be
       -0.4769488 -0.4641438 0.29807198 -0.1596931
000110 0a e9 7b 3e d1 28 c5 3d a9 60 3f bd 76 14 cd be
       0.24600616 0.09626926 -0.04672304 -0.40054673
000120 32 04 75 3e 57 bf 46 3e 88 4c 16 3f 5a e6 a0 3d
       0.23927382 0.19408928 0.5871053 0.07856436
000130 7d e8 b6 3e 32 1e f8 bd b4 5f c3 be 65 5c c0 3e
       0.3572425 -0.12115134 -0.38158953 0.3757049
000140 d5 07 b2 3e 2b 18 98 be ee fd 0e bf f7 ab 57 3e
       0.347716 -0.2970594 -0.55856216 0.21061693
000150 17 16 54 3e 02 d5 2e be 14 ed b7 3c 81 fb a7 bc
       0.20711552 -0.17073444 0.022451915 -0.020505669
000160 e9 e7 1d be f8 ca 10 bc 21 a1 0c 3f 1f 05 9a 3e
       -0.15420498 -0.008837454 0.54933363 0.30082032
000170 82 0d 55 be ae a0 67 be b8 67 5b 3e 97 f8 0b bf
       -0.20805934 -0.22619888 0.21426284 -0.54676193
000180 e1 84 c7 3e 13 3c 7c 3e 82 c5 0f bf a2 54 41 bd
       0.38968566 0.24632291 -0.5616075 -0.047199853
000190 c3 83 78 3e 84 7e 9e 3e ce 5d 3f be 1b 74 41 3f
       0.24269013 0.309559 -0.18688127 0.7556779
0001a0 ed a7 25 3e 0d fd 9d be 46 ec 71 3d 24 4c 62 be
       0.1617734 -0.30857125 0.05906322 -0.22099358
0001b0 85 c8 c2 3d b3 37 d2 be 52 b4 47 3f a7 a3 0a bf
       0.09510902 -0.4105812 0.7800952 -0.54155964
0001c0 41 e5 c5 be 99 bd 13 be 19 fc 16 be 7a dc a2 3e
       -0.3865147 -0.14427795 -0.14744605 0.31808835
0001d0 67 3c 22 3e e6 75 35 3e a4 6a 70 be 3c cf 9a 3e
       0.15843354 0.17720756 -0.2347818 0.30236232
0001e0 7f 51 a8 3e ae 52 1b 3c 57 92 83 3e 39 e9 02 3f
       0.32874677 0.009480162 0.25697586 0.5113712
0001f0 22 d3 b3 3e 91 48 5c 3e 78 3c b5 3c 16 75 62 3e
       0.3512202 0.21512057 0.02212356 0.22114977
000200 87 61 34 3f 1f da 63 be 96 11 f1 bd af 49 08 be
       0.70461315 -0.22251175 -0.117709324 -0.13309358
000210 15 8c 9b be 82 b5 44 3f 7b 89 72 be 79 a7 d3 be
       -0.30380312 0.7683946 -0.23685257 -0.4133871
000220 65 d3 06 3f 9d 38 11 bf 95 1d 6b be 0c e3 37 bf
       0.5266631 -0.5672701 -0.22960503 -0.7183082
000230 df 6b 04 3f b0 48 40 bf 17 ce 10 be 86 c6 81 3e
       0.517271 -0.7511091 -0.14141117 0.25346774
000240 d4 c0 2d 3f 30 a0 3e bd 94 03 e7 3d 4a 4c ca 3e
       0.6787236 -0.046539485 0.11279979 0.3951133
000250 b9 3b 09 3f df 02 82 3e 73 6c 8f 3e f3 10 62 3e
       0.53606755 0.25392815 0.28012428 0.22076778
000260 d5 42 4c 3e 2b ab a8 3e 59 50 fe 3d 68 16 27 3f
       0.1994737 0.3294309 0.12417669 0.65268564
000270 c4 4c c8 3e 8c 22 78 3e b7 78 ea 3e 30 4a dd 3e
       0.39121068 0.24231929 0.45795223 0.43220663
000280 16 47 92 3e c1 26 a0 3e a5 09 90 3e f8 78 09 be
       0.2856986 0.31279567 0.28132358 -0.13425052
000290 69 29 c3 bd 98 ef bc be b0 d2 44 3e 19 7f 0f be
       -0.09529383 -0.36901546 0.19220996 -0.14013328
0002a0 a9 ec 64 bd 37 8f 26 bd 76 44 04 3f 2a ef d0 be
       -0.05588976 -0.040663924 0.51666963 -0.40807468
0002b0 88 43 67 be 15 dd 2e bf d4 21 a2 be 66 61 ad 3e
       -0.22584355 -0.68306094 -0.31666434 0.33863372
0002c0 d3 59 03 bf c9 76 35 3e a2 8d b6 be d7 b7 95 3e
       -0.51308936 0.17721094 -0.35654932 0.2924182
0002d0 9f bb 19 3e 2c c3 8c bd 26 92 18 3f 70 b8 20 3f
       0.15012978 -0.068731636 0.59598005 0.6278143
0002e0 97 fb 95 3b 4d 2d 9a be 7f fd 42 bf 8c cf 6f 3e
       0.004577111 -0.30112687 -0.76168054 0.23419017
0002f0 dc 90 c5 bd 8a 7c 2a be 63 56 c0 be b0 86 12 3f
       -0.0964677 -0.1664907 -0.37565908 0.57236767
000300 b9 b7 0f bf 42 01 f0 be 94 e6 8c 3e cc 7b 4a be
       -0.56139714 -0.4687596 0.27519667 -0.19773787
000310 e2 2b c6 3e c2 b8 41 3d a6 28 81 be 56 8e c8 be
       0.38705355 0.04729534 -0.25226325 -0.39171094
000320 34 e6 a7 3e 28 39 88 3e b6 fc 3a 3f 7e 3e fa 3d
       0.3279282 0.26606107 0.73041856 0.12218951
000330 19 ee c6 3e a3 b0 2a be 7f 30 ee be 21 71 e2 3e
       0.3885353 -0.16668944 -0.46521375 0.44226936
000340 e1 12 ef 3e 04 ed a7 be 84 f1 1e bf 9b 00 b5 3e
       0.4669409 -0.32798016 -0.62087274 0.35352024
000350 4b c8 09 3e 5e 31 6c be 77 ad a6 be 5f b0 88 3d
       0.13455312 -0.23065707 -0.32554218 0.06674265
000360 2c 31 4d bd 5a 52 a6 bd fc 5b 14 3f e9 c0 cf 3e
       -0.050095722 -0.08121176 0.57952857 0.40576866
000370 39 45 19 be 10 c1 b0 be fb 85 ac 3e dd e4 fe be
       -0.14967813 -0.34522295 0.3369597 -0.49783984
000380 18 2a e3 3e ed f5 a1 3e 09 62 45 bf a1 0a 2d bd
       0.44368052 0.3163294 -0.77102715 -0.042246465
000390 81 62 a4 3e 5e f7 a5 3e aa 3c 9a be ec a7 84 be
       0.32106403 0.3241529 -0.30124408 -0.25909364
0003a0 5a f4 43 3e f5 e9 82 be 06 a9 87 3d b7 5f 4e be
       0.19136181 -0.2556912 0.066240355 -0.201537
0003b0 2c 6c 8f 3d b3 51 10 bf 94 92 4a 3f 84 d5 1a bf
       0.07003054 -0.56374663 0.7912991 -0.6048205
0003c0 44 ed e7 be b9 26 10 be c3 0c 84 be 7d 30 b4 3e
       -0.45298207 -0.14077272 -0.25790986 0.35193244
0003d0 d7 4d 42 3e 78 b1 62 3e 00 5b 09 be 06 33 de 3e
       0.18975006 0.22138011 -0.1341362 0.43398303
0003e0 f8 24 ab 3e b9 c9 03 bd 78 78 1c 3e 7e 9f ba 3e
       0.33426642 -0.0321748 0.1528033 0.36449808
0003f0 a1 d8 c2 3e 22 9b 56 3e 98 ec 00 3e fc ef a0 3e
       0.380559 0.20957616 0.12590253 0.31433094
